model/model.pth (torch, 16787 bytes, 4 tensors)

linear1.weight f4 [256, 11]
00000000: 53d2 773e 3fd6 423e f9d5 7b3e dbd5 7d3e
00000010: 209a 63bf fdec 9cbf 36b5 0a3f fb9a 26bf
00000020: 145b 4fbf b0cc 55be 5bf9 163f 9c1f 3abe
00000030: 0080 24be 3dfc 903d f37a 543f 6c54 7fbf
00000040: 5f8b 74bf fb1e a73e e90c 093f e1b6 8fbf
00000050: 1b1b 28be 65eb cdbf 1683 6dbe 4d0b c4be
00000060: ab86 ffbe 6eea 293e b305 41be 78b4 1bbe
00000070: a5ad 353f 34d9 4bbf db88 be3b 8af5 843e
00000080: 5bd2 9fbe b4ab 7cbe 075b 55bf da84 80bd
00000090: d02a 573f 0b5c a63e 4ff8 c4bd 3a9f 0f3f
000000a0: 5034 b03e 3c7e 06bf 56c3 86bf 670b 7fbf
000000b0: 2171 08bf 3f36 9cbe f590 d53e a07d f23e
000000c0: 2119 403f 3774 3abf cc6c 0fbf de73 fd3e
000000d0: fb09 d23e 0f35 34bf c2e1 efbe 54fc bbbe
000000e0: d834 c63e 2cac e6be a4d6 c93c 81d4 77bd
000000f0: b53e c4be bb5a acbe e904 113d 0ed0 5b3f
00000100: a88b 9b3e aa45 d43d fded 253f 6115 ac3e
00000110: dc15 d3bf f5cd 48bf 2a83 ea3e 063f 3a3f
00000120: c458 2ebf 808b e63e dee9 abbe 9f96 a43e
00000130: 08c3 cfbf 73ca fd3d 871b 113f 73f6 a3bf
00000140: cae2 67be 313e 6f3e 87fb 273e 5643 793e
00000150: 8337 aabe 4f75 cebe f135 663e 3d46 173e
00000160: 2eb6 083f e4ed 233e 6e77 73be f8db 383f
00000170: 22f3 0fbf 4ef9 b9bf e969 763e 4932 57bf
00000180: f418 df3e 0cb9 20bf 4c67 633f 5f2b 88bd
00000190: 38c4 0e3e 0368 ccbe 2cc1 7d3f 75b0 c7bd
000001a0: b4b5 0ebf 29a7 19bf 515d 2e3f 4322 95be
000001b0: 0d24 22bf c2c0 00bf 388b 69be 24f6 d4bf
000001c0: d871 553f cb1d 16bf 0363 983e 0fb3 013f
000001d0: 7e3b 533e b32a c73e c6b4 59be cfb1 17bf
000001e0: 38cf 39bf a9a1 77be ee5a a23e 26bc 483e
000001f0: 29a9 efbc 0f66 63bf 2516 62be aeb6 c33d
00000200: 8fcf d3bc 5abf 843f fe61 873f aa40 993f
00000210: 8dbd 843e aa87 0b3f 43ca 023f 3e87 403e
00000220: 6236 36bf 97e0 96be de64 363f b72a 14bf
00000230: c7e1 6a3f 089a 893f a656 efbe a208 90bd
00000240: b60c a4be 55e2 a5be 0e08 1a3f ebd1 e3be
00000250: 2b9b b53d 69e2 71bf 4a05 273f 591a d33e
00000260: 1c66 a3bf 123f 3dbe e184 c0be b13e a0bd
00000270: e41a a53e 9bce 5f3f 121f 90bf d066 45be
00000280: ddca 0f3f 08c4 8e3e 8fe5 c0bf 17f7 a2bf
00000290: 3bd3 49bf e799 65bd 7fe8 86bf c236 503e
000002a0: b93f 2d3f 8c94 d9be 04f4 ad3e 736f dfbe
000002b0: b089 86bf bd8a 423d 0ae2 4b3f 7083 52be
000002c0: fc01 fbbe a698 063d 97ee 27bf 538f 9cbf
000002d0: 67b3 4c3e 79a4 1e3d b30a 563f 4063 523f
000002e0: 35c2 5ebd b9bd 88be 645d 6bbf 57d9 a5bf
000002f0: dc49 053f b489 8b3b 9d25 863d 809f 0cbf
00000300: 76bb 52bf 637f 02be f46d 30be fdfa 293f
00000310: f845 693f 5712 c53e 7495 e7be 5f83 29bf
00000320: a8b0 21bf 270b 593f 3858 463f 6c9c e13d
00000330: 606d 85bd 0997 813e 1c76 eabd aaee 7dbf
00000340: e8c0 66bf ea33 003e 80f5 8c3f da8a 21be
00000350: 69d9 033f c689 efbe 7aa1 c13e f96c 5fbf
00000360: bcb5 233f 4911 a3bf bc0b 82bf b170 eebe
00000370: fa51 e43d 62e3 c6bd 5fb3 53be fffb 0b3f
00000380: c623 3cbf 139a 43bf ff7b 9fbe 7650 fa3e
00000390: c5cd 4fbf bf2b 45bd 16f7 6dbf efd2 2d3e
000003a0: eb46 cbbd 5b34 c53c ce40 83bc a68c 65be
000003b0: e974 92bb 8904 88be 3f7c 8ebe 3157 a8bd
000003c0: 0add babd 2d09 81be ae67 b9bd 5e8e 23bf
000003d0: 76a0 bdbc b256 f23d 1b17 37bf 27df 8fbf
000003e0: 822a 673d f7dd 72be 7b04 ff3e b6d7 aa3f
000003f0: 046a 233f 88a1 36bb c69b 003f 236e 203e
0.24201326 0.19027041 0.24593343 0.2478861 -0.8890705 -1.2259823 0.54182756 -0.6508023
-0.8099835 -0.20878863 0.58974236 -0.1817612 -0.16064453 0.07079361 0.83000106 -0.9973819
-0.95525163 0.32640824 0.53535324 -1.1227685 -0.1641659 -1.6087462 -0.23194537 -0.38289872
-0.4990743 0.16593334 -0.1884983 -0.15205562 0.70968086 -0.796283 0.0058146543 0.2596858
-0.31215176 -0.24674875 -0.8334202 -0.062753394 0.840497 0.32492098 -0.096176736 0.56102335
0.3441491 -0.5253637 -1.0528362 -0.99626774 -0.5329762 -0.30510136 0.41712156 0.4736147
0.75038344 -0.7283358 -0.56025386 0.49502462 0.4102324 -0.7039346 -0.46851927 -0.3671595
0.38712192 -0.45053232 0.024638481 -0.060505394 -0.38329092 -0.33662972 0.035405073 0.8586434
0.30379987 0.1036485 0.64816266 0.3361006 -1.6491046 -0.78439265 0.45803195 0.72752416
-0.68104196 0.45028305 -0.33576864 0.32146165 -1.6231394 0.1239213 0.5668263 -1.2809585
-0.22645107 0.23363568 0.16404544 0.24342093 -0.33245477 -0.40323874 0.22481515 0.14772888
0.53402984 0.16008717 -0.23776028 0.72210646 -0.56230366 -1.4529207 0.24063839 -0.84061104
0.43573725 -0.6278236 0.88829494 -0.066488974 0.13942039 -0.39923105 0.9912288 -0.097504534
-0.55746007 -0.6002069 0.6811114 -0.29127702 -0.6333626 -0.50294125 -0.22807014 -1.6637616
0.83376837 -0.5863921 0.2976304 0.50663847 0.20628163 0.38899764 -0.21260366 -0.5925569
-0.72581816 -0.24182762 0.3171 0.19603023 -0.029255467 -0.88827604 -0.2207876 0.09556328
-0.025855808 1.0370896 1.057678 1.1972859 0.25925866 0.5450388 0.51089877 0.18801591
-0.7117673 -0.29468223 0.7124766 -0.5787768 0.9175076 1.0750132 -0.46745795 -0.070328966
-0.32040948 -0.3239924 0.6016854 -0.44496092 0.088674866 -0.944861 0.65242445 0.4123104
-1.2765536 -0.1848109 -0.3760138 -0.078244574 0.32247078 0.8742463 -1.1259482 -0.19277501
0.5616892 0.27883935 -1.5070056 -1.2731656 -0.7883794 -0.056054976 -1.0539702 0.20333388
0.6767536 -0.42496145 0.33975232 -0.43639717 -1.0510769 0.047495592 0.79641783 -0.20557952
-0.4902495 0.03286042 -0.65598434 -1.2231239 0.19990312 0.038731072 0.83610076 0.82182693
-0.05438443 -0.26707247 -0.9193938 -1.2956952 0.52065825 0.004258359 0.06550143 -0.5493088
-0.8231729 -0.12743907 -0.17229444 0.663986 0.9112239 0.38490555 -0.4523121 -0.6621608
-0.6316018 0.8478264 0.7747836 0.11016163 -0.06515002 0.25310543 -0.11448309 -0.991923
-0.901381 0.12519804 1.1012421 -0.15775624 0.51503617 -0.467848 0.3781851 -0.87275654
0.6394918 -1.273965 -1.0159831 -0.46570352 0.11148448 -0.097113386 -0.20673893 0.5468139
-0.73492086 -0.76406974 -0.3114929 0.48889512 -0.81173354 -0.048137423 -0.9295515 0.16974996
-0.09925636 0.024072817 -0.016022112 -0.22416934 -0.004469503 -0.2656596 -0.27829167 -0.082197554
-0.09124191 -0.25202313 -0.090529785 -0.6388911 -0.023147803 0.11832942 -0.7151963 -1.1239976
0.056437023 -0.23717485 0.49808106 1.334708 0.6383364 -0.0027867276 0.5023769 0.15667014

linear1.bias f4 [256]
00000000: 0a48 023e d2a2 d43e da58 26be e4f4 e63f
00000010: e3a4 633e ff4e 21be ce56 80bd 47c0 363e
00000020: 09ec 063e b016 98bd 78c8 403f 3f60 1cbe
00000030: 64e5 4cbe 98d8 d83e f9ea 023f a7bf ba3e
00000040: 9760 b73e b16d f5bd a5fc c43f c576 433e
00000050: 4ba9 733e af69 32be 9932 513e 9d73 2fbe
00000060: 70fa 56be 64a3 733f 363f b0bd 89ae f33e
00000070: be70 8c3f 6686 2a3e 4768 6c3e cb2b 23be
00000080: b795 49be d491 74be 0142 b03d ff0a a2be
00000090: 9fcf a0be cd39 9c3f 6c6c b1bd 5e8a 5abe
000000a0: b75e 41be 3426 26be e095 a2bd 2952 ce3d
000000b0: 26a5 403e 68c8 a6bd ecba 79be 50f2 173d
000000c0: a499 e53e 60cd 373e e3d7 293d b83a f9be
000000d0: e097 f5bd 2797 c43f 72cd 183e 1b29 b53e
000000e0: bd24 0c3f c34b b2be 3d4f 6abe 8d4f 0d3f
000000f0: eb20 53bd 06a0 913c 1644 6dbe 79b8 1a3e
00000100: 7a8c bf3e 6007 923e cbd6 043d 7b3f 21bd
00000110: 8d71 a73e d3f0 013f 327b 5e3e e523 8d3e
00000120: 34fd c3be ecb6 a53e 94d6 28be 86f8 c23e
00000130: dde3 d73e de97 b1be c543 a0be 8442 c33d
00000140: a5e1 873d 87be c6be 7f87 ff3e 0e6c e1be
00000150: c44b 01be 2fa7 7d3e 307e 773f 6b5e a23c
00000160: a406 8e3e 0f85 bbbd 1934 863e ebc0 c4bd
00000170: d506 d5bc 0164 603d 10c4 aa3d 2935 cb3d
00000180: 4b6b 67be 4707 10be 2525 45be 3f04 09be
00000190: a7d7 5bbd 5337 ba3e aa2f 77be 722c c13e
000001a0: 47ea 293f 7713 bb3e ab43 00be b0e3 363c
000001b0: 9871 99be 4886 463b b32f 2e3e 77c6 8cbd
000001c0: a6f6 ae3d 8fbb ba3f 6c60 64bc 9231 5bbe
000001d0: ded6 48bf 8ecb cabe 89fc d1bc eeb0 833e
000001e0: 388f 74be 6f3a cebd dd1a dfbd bb13 163e
000001f0: e31d bc3f 6e3e d3be 6734 643f 4cb8 15be
00000200: 94ee 47be 0ba7 a5be 54fd 8e3f 3695 2c3f
00000210: 5eb7 18be a435 4a3d bb13 473e 8d3e 11bd
00000220: 8822 a9bd 81d4 993c b63b 62be 48cb 25bd
00000230: 1261 1b3f 098f 9f3d 6004 1a3f 080e 8bbe
00000240: d33c 0a3f 9e99 e73d 3118 60be acef 3f3e
00000250: 8fe0 4e3f 3aab 633e 9a7c 0a3e 4303 183f
00000260: 5864 933c 98dd 7c3e 1e16 21bf c444 1c3e
00000270: d09c 193f 5acc 31be f6b9 76bb 3ccf cbbc
00000280: d587 5a3e 69d6 2ebe 727c d4bd 9022 ab3d
00000290: b31f 18be f5ae 70be 49da 91be 8142 91be
000002a0: 6f19 9a3d b402 febd 0e36 083f 31f0 1b3e
000002b0: 508a 28bd 64d0 ea3c 6140 ed3e ead6 e13e
000002c0: 1963 c1be ded9 363e 141d 56be b59a 1a3e
000002d0: b210 323f 1211 3b3e 12a7 943d a771 c23e
000002e0: a8c6 cc3e 9f33 9abe 160f 6c3f cc25 25bf
000002f0: 3505 1d3f 1021 4ebe 24df 12bd 8e1d 913e
00000300: 663a 97be 9ac2 e1bd 2cda 003f bdc1 3f3e
00000310: 27f8 293e b80c 3abd b4c3 bfbd 2cec 62be
00000320: 9a5a 923f 1c82 8cbe 0bf7 09be 1bbb c63d
00000330: d39a abbd 801e 60bd 15fb 093d edad 843f
00000340: a4bf c1bd a1e8 753b 6f68 833f 7b27 843f
00000350: 9e0e 83bd ca48 7ebe df74 36be 16b9 b7be
00000360: a184 6a3e 5171 433e 925d 053e c489 653e
00000370: 5e56 9d3e d918 0d3c 10ef 5fbe d29a b43e
00000380: ee6f 723e c295 cfbe ffcc c33e 3a1b 83be
00000390: b863 ac3f 0824 ae3f c49b 71be f0d9 5abe
000003a0: ec69 59be c36f 433d 7fdf a3be e27d 563e
000003b0: f0fe f2bc c4ca a9be 8a76 c23e a82a 893e
000003c0: 724d 0c3f 17a1 8abe 4bcd 0f3e 0b12 88be
000003d0: e00c fcbc dd1d 4dbe b86c 743e b927 3bbc
000003e0: eac7 bb3d b76e 75be 8990 4a3e 961a bf3d
000003f0: 3d29 853d 2cdb 8d3e 832d 73be b628 ae3e
0.12722793 0.41530472 -0.16244832 1.8043485 0.22230868 -0.15752791 -0.06266557 0.17846785
0.13175978 -0.07426202 0.7530589 -0.1527109 -0.2000938 0.42352748 0.5113979 0.36474344
0.3581588 -0.119838126 1.5389601 0.19088276 0.23795049 -0.17423128 0.20429458 -0.17133947
-0.20993972 0.9517119 -0.086058065 0.47594097 1.0971906 0.16652831 0.23086654 -0.15934674
-0.19686018 -0.23883754 0.08606339 -0.31649014 -0.31408402 1.2205139 -0.08663258 -0.21341845
-0.18883787 -0.16225511 -0.07938743 0.100742646 0.18812999 -0.08143693 -0.24387711 0.03709632
0.4484378 0.17949438 0.04146565 -0.4867761 -0.119918585 1.5358628 0.14922121 0.35382923
0.5474356 -0.34823427 -0.2288179 0.5519951 -0.051545065 0.0177765 -0.23170504 0.15109433
0.37411863 0.28521252 0.032431405 -0.03936718 0.3270382 0.50758094 0.21726683 0.27566448
-0.38279116 0.3236612 -0.16488105 0.38080233 0.42166033 -0.34686178 -0.31301704 0.09534171
0.06634835 -0.38817236 0.49908063 -0.44027752 -0.12626559 0.24770807 0.9667692 0.019820413
0.2773944 -0.09156238 0.26211622 -0.09607109 -0.026004234 0.05478287 0.08338177 0.09922249
-0.22599523 -0.14065276 -0.19252451 -0.13380526 -0.05367246 0.36370334 -0.24139276 0.37729222
0.66373104 0.36538288 -0.12525813 0.011162683 -0.29969478 0.003029244 0.17010383 -0.06873792
0.08543138 1.4588488 -0.013939004 -0.21405628 -0.7845286 -0.39608425 -0.025633113 0.25720924
-0.23882759 -0.10069739 -0.10893796 0.14655964 1.4696621 -0.41258568 0.8914246 -0.14621085
-0.19524604 -0.32354006 1.117106 0.6741518 -0.14913699 0.049367562 0.1944112 -0.035460044
-0.082585394 0.018778088 -0.2209309 -0.040477067 0.6069499 0.07790954 0.60162926 -0.27159142
0.5399906 0.11308597 -0.21884228 0.18743771 0.808114 0.22233286 0.13524094 0.59379977
0.017992184 0.24693906 -0.62924373 0.15260607 0.600049 -0.1736311 -0.0037647462 -0.02487909
0.21340878 -0.17073978 -0.103752986 0.08356202 -0.14855842 -0.23504241 -0.2848685 -0.2837105
0.07524382 -0.12402859 0.5320748 0.15228345 -0.04114753 0.028663822 0.4633818 0.4410928
-0.37770918 0.17856547 -0.2090953 0.15098079 0.69556725 0.1826823 0.07258429 0.37977335
0.39995313 -0.3011751 0.9221052 -0.645108 0.6133607 -0.201298 -0.035857335 0.2834286
-0.29536742 -0.110234454 0.50332904 0.18726249 0.16598569 -0.045422286 -0.09363499 -0.22160405
1.1433899 -0.27443016 -0.13473146 0.09703656 -0.0837914 -0.054716587 0.033686716 1.0365578
-0.09460381 0.003752269 1.0266246 1.0324548 -0.063992724 -0.24832454 -0.1781802 -0.35883397
0.22902156 0.19086196 0.13023975 0.22415835 0.30729955 0.008611881 -0.21868539 0.3527437
0.2367551 -0.40543944 0.38242337 -0.2560671 1.3467932 1.3604746 -0.23594576 -0.21372199
-0.21231812 0.047714006 -0.3200645 0.20946458 -0.02966258 -0.3316251 0.37981063 0.26790357
0.5480567 -0.27076027 0.14043157 -0.26576266 -0.030767858 -0.20030923 0.23869598 -0.011423045
0.0916899 -0.23968016 0.19781698 0.09331243 0.06502006 0.27706277 -0.2374783 0.34015435

linear2.weight f4 [3, 256]
00000000: 6aae 8ebe 72db 593f eec0 f9bd 82f8 503f
00000010: b395 643f 7bcf 443e 12ba 60bf b294 e0be
00000020: f63d e6be d248 503f 16e5 b93e 090a 59bf
00000030: 43c5 7fbf 560a 4c3f e2db 593f 879b 3fbf
00000040: a813 87bd 59a6 39bf 046b 803f e8e0 493f
00000050: 0047 7a3f c1db 8bbc a7db bebf 9e73 30bf
00000060: da77 57bf aa33 3b3f cad0 353e da4e 8d3f
00000070: 9ab3 373f 876b 93be 819e 613f 1be3 813f
00000080: b4c1 46bf 51c0 62bf 7908 eebe a160 153d
00000090: e348 61be e48e 203f ce0e fd3d ac6c a6be
000000a0: a21f 1bbf e873 a63e d809 713f 8107 9abf
000000b0: aa15 343f 71e7 2fbf f27a 68bf 24e3 48bf
000000c0: 1116 533f 82c2 68bf 8356 8dbf f8c5 60bf
000000d0: 2c7c 503f 7a98 3f3f 4962 2d3f 1000 4abf
000000e0: a6b6 c33e 51cf 15bf 8cbc cf3e 266b 7b3f
000000f0: 7ee8 77bf a967 bdbc 359d b6be 922b 0ebf
00000100: 7b13 363f f0ca 0e3f 00df 393f ef82 55bf
00000110: 69c5 74bf cf41 2d3f feb3 1d3f 224b 4a3f
00000120: 73a3 8abe 4a9a 423f 98a9 4cbf 3c15 2a3f
00000130: 1a6e 633f eb66 153f bbad 0abd 7d21 853e
00000140: 7e6b 4a3e 7b28 86bf ca18 7a3f f6f0 67bf
00000150: ca14 77bf d123 40bf e2dc 123f 0965 8a3f
00000160: 1924 ab3f 1a2b 513e 269a a73e 0733 553f
00000170: 515a 3abf c041 d73e b9f1 28bf eba4 02bf
00000180: 40a2 92be 97de 64bf 3ddf e3bd 2acd 973f
00000190: 7402 9f3e b5df 783f 329b 693d 0f80 643f
000001a0: 75a6 d33e aa6a 613f 303e 043e aa72 5e3f
000001b0: 71da a03f 2033 2cbf 1ea1 68bf 89a9 8ebf
000001c0: 2b1f 5fbf aebb 6c3f ef18 743f acd9 c03c
000001d0: fb6c fbbd 0d78 6abf b7d0 0abf e821 42bf
000001e0: a1d9 f3b9 2f13 8ebf 5d9a dabe 32c2 3940
000001f0: 7922 423f 43a5 81bf fdad 2b3f 13b9 c1be
00000200: c620 8fbd 277b 17bf 7ca5 023f 2ef5 783f
00000210: dd02 1dbf 5474 3f3e a818 54bf b3d9 36bf
00000220: 6ae0 5b3f c98a 5cbf 78c0 b5be e4c2 f93c
00000230: cf32 5c3f 57ab c0be 16a5 263f 6441 01bd
00000240: c2d5 513f 5961 93bf 851c 73be 3515 813b
00000250: 8f90 c23e f480 5dbf 5127 76bf a44e 243e
00000260: 7c14 32bf 432f c1be e422 56bf f9c9 8abf
00000270: f1d1 e83e 7a71 80bf da02 b73e f035 243e
00000280: 6a6a ce3e ebe7 29bf 55b5 1abf 35db 4b3f
00000290: 2368 3abe 5ed8 61bf b08c 3abd f386 4fbf
000002a0: e8e5 4bbf 3417 913e 59d8 3c3f 38bc 1dbf
000002b0: 31e7 8bbd ea81 81be 4f10 8b3f 9380 5ebe
000002c0: cd13 5fbf a17b 3abf 5dc8 40be 3d50 1cbc
000002d0: da5b 553f 9243 7ebf 886f 213f c82a 443f
000002e0: d993 f63c c09c 4e3c d54f 4f3f 1140 94bf
000002f0: cfdd 8c3f 1015 c0be bec3 353f a5e0 683f
00000300: 0730 67bf 76a0 013f 7346 4c3f 7c55 2abf
00000310: 2267 4f3f 5921 52bf 312a 493f 2d8b 893f
00000320: d1bc 6d3f 7059 8d3e ac87 23bf fd19 45bf
00000330: 7809 2fbf 1e8e 76bf 6d7b 58bf 5204 823f
00000340: 5c4c 49bf ce91 44bf 684e 4d3f 53fe 933f
00000350: 4b28 01bf 2807 8ebc 9209 06bc 0399 11bf
00000360: c9c3 5c3f 5314 313f ce42 1bbe 7164 b7bf
00000370: 653f 6d3f f365 29bf ef63 8ebe 8310 aebf
00000380: ea92 9fbe 2aec 5cbf 4647 893e e186 f2be
00000390: 7332 273f f53a 393f 125c 34bf 6834 0c3f
000003a0: 4b60 643f e63f a93f 0190 983a 6846 38bf
000003b0: 66ca 1a3f 9f21 01bf 190d 773f 8ad0 f43e
000003c0: 8d1c 0f3f f449 02bf a057 213e c9af 1dbf
000003d0: b4d3 1fbf 66c2 873f 8f18 7ebf ed40 59bf
000003e0: 571f 22bf e818 2f3c 1181 25bf 98e3 f43c
000003f0: f86f 26bf 4c1a 21bf 152f 30be 2873 1d3f
-0.27867442 0.8510047 -0.121950015 0.8162919 0.8929092 0.19219773 -0.8778392 -0.43863446
-0.44969147 0.81361115 0.3630759 -0.8478094 -0.9991037 0.7970327 0.8510114 -0.7484669
-0.06595546 -0.7251945 1.0032659 0.78858805 0.9776459 -0.01707256 -1.4910783 -0.6892642
-0.84167254 0.7312571 0.17755428 1.1039689 0.71758425 -0.28792974 0.8813248 1.0147432
-0.7763932 -0.885747 -0.4649084 0.036469106 -0.2200046 0.62718034 0.123563394 -0.32504785
-0.6059514 0.32510304 0.94155645 -1.203354 0.70345557 -0.68712527 -0.908126 -0.7847159
0.82455546 -0.90921795 -1.1042026 -0.87802076 0.8143947 0.74842036 0.67728096 -0.78906345
0.38225287 -0.58519465 0.40573537 0.9821037 -0.9683913 -0.023120718 -0.35666814 -0.55535233
0.71123475 0.5577841 0.72605896 -0.83402914 -0.95613724 0.6767854 0.6160277 0.79020894
-0.27077827 0.76016676 -0.7994628 0.6643865 0.88839877 0.58360165 -0.03385709 0.26002112
0.19767568 -1.0481104 0.97694075 -0.9060205 -0.96516097 -0.7505465 0.5736829 1.0812083
1.3370391 0.20426598 0.32734793 0.83280987 -0.7279406 0.4204235 -0.6599384 -0.51032895
-0.28639412 -0.89402145 -0.11126564 1.1859486 0.3105656 0.9721635 0.05703277 0.892579
0.41337934 0.8805338 0.12914348 0.86893713 1.2566663 -0.6726551 -0.90870845 -1.1145488
-0.87156934 0.92473876 0.95350546 0.023541294 -0.12276646 -0.9158943 -0.54224724 -0.75832987
-0.00046510718 -1.1099604 -0.42695895 2.9024777 0.7583385 -1.0128559 0.6706236 -0.37836513
-0.06988673 -0.5917229 0.5103376 0.97249115 -0.61332494 0.1869672 -0.8285012 -0.7142593
0.85889304 -0.8614927 -0.35498405 0.030488439 0.8601503 -0.37630722 0.6509565 -0.031556502
0.81966794 -1.1514083 -0.23741348 0.0039392957 0.38000914 -0.8652489 -0.9615374 0.16045624
-0.69562507 -0.3773137 -0.8364699 -1.0842887 0.45472673 -1.003463 0.35744363 0.160362
0.40315562 -0.66369504 -0.6043294 0.7963136 -0.18203788 -0.88220775 -0.045544326 -0.8106529
-0.79647684 0.28338015 0.7376762 -0.61615324 -0.06831206 -0.2529443 1.0864352 -0.21728735
-0.8713959 -0.7284489 -0.18826433 -0.009540615 0.8334328 -0.99321854 0.6306081 0.7662778
0.030099796 0.012610614 0.8098119 -1.1582052 1.1005191 -0.3751607 0.71001804 0.9096778
-0.9030766 0.5063547 0.79794997 -0.6653669 0.81016743 -0.82082134 0.78580004 1.0745598
0.92866236 0.27607298 -0.63878894 -0.7699278 -0.68373823 -0.96310604 -0.8456333 1.0157568
-0.7863214 -0.7678498 0.80197763 1.1561989 -0.5045211 -0.017337397 -0.008180993 -0.568741
0.86236244 0.6917164 -0.15162203 -1.4327527 0.9267486 -0.6617119 -0.27810618 -1.3598789
-0.31166774 -0.8629786 0.2681219 -0.4736853 0.65311354 0.72355586 -0.7045299 0.54767466
0.8920943 1.3222625 0.0011639596 -0.7198243 0.60465086 -0.50441927 0.9650436 0.47815353
0.5590294 -0.50894094 0.15756083 -0.6159635 -0.6243241 1.0606201 -0.99256223 -0.84864694
-0.6332907 0.01068709 -0.64650065 0.029893681 -0.650146 -0.6293075 -0.1720546 0.6150384

linear2.bias f4 [3]
00000000: b571 1d3f 41df 0b3e ff5f 3b3e
0.6150163 0.13659383 0.18298338
